model10.tflite (tflite, 971640 bytes, 10 tensors)

sequential/conv2d/BiasAdd/ReadVariableOp/resource f4 [24]
000000 72 0b 29 3e d0 c3 c8 bc c8 c9 1b bc a5 49 13 3e
       0.16508272 -0.024507433 -0.009508558 0.14383562
000010 56 2f 01 3e 6b 86 1c bd 14 70 37 3e 19 6c eb 3c
       0.12615713 -0.03821413 0.17913848 0.028738068
000020 eb ab 97 bb 66 6f 4d 3e 78 18 13 3d 63 23 57 3e
       -0.0046286485 0.20062026 0.035912007 0.21009593
000030 67 f0 fb ba 06 82 80 3e 81 f1 b1 bd 15 0d 41 bd
       -0.0019221426 0.250992 -0.08688641 -0.047131617
000040 97 3b 2e 3d 7e 21 80 3e cd 98 0e 3c 71 a2 9f 3d
       0.042537298 0.25025553 0.008703423 0.07794655
000050 17 15 ea ba 77 c7 a0 bd 03 62 88 3d fa 43 92 bc
       -0.0017859068 -0.07850545 0.06659319 -0.01785468

sequential/conv2d_1/BiasAdd/ReadVariableOp/resource f4 [48]
000000 74 20 95 3c d6 44 b0 3d 70 ed 66 be e6 e2 49 be
       0.018203951 0.086068794 -0.22551513 -0.19715461
000010 ac 05 df bc 43 87 86 be 08 be 1f be e2 fd 17 be
       -0.027224384 -0.26275072 -0.15599835 -0.14842942
000020 a6 c5 0f 3e 89 88 bb bd 01 65 07 3e 12 e0 2b 3c
       0.1404024 -0.091569014 0.13222124 0.010490434
000030 fb a2 0c bc 58 49 db bd 10 b3 04 bd 0a 69 2d 3d
       -0.008583779 -0.107073486 -0.03239733 0.0423365
000040 c7 b7 20 be b5 29 c0 3e 12 09 5e 3e 9b 4f d3 3d
       -0.15695105 0.3753182 0.21683148 0.10317918
000050 1f d1 04 be ba 31 61 be 6f 7d 76 3e 17 5a 62 3d
       -0.12970398 -0.21991625 0.24071287 0.055261698
000060 00 ac 4f bc 7c 6c 14 bb 33 66 af 3e 4d a3 2e 3e
       -0.012675285 -0.002264767 0.3425766 0.17054482
000070 a0 39 01 3e ed a9 18 be 36 9d 41 be c4 5a 4d 3e
       0.12619638 -0.14908572 -0.18907627 0.20054156
000080 5e 18 b6 3d 9a 0f 54 bd 44 78 f2 bd 2f 8e 83 bd
       0.088913664 -0.05177269 -0.11839345 -0.06423604
000090 35 f6 65 be 38 bf 96 be fd 68 7e be 86 b5 78 be
       -0.22457202 -0.29442763 -0.24844737 -0.24287996
0000a0 45 99 51 3e 5d c3 23 be c3 33 d6 3d 6f 78 68 be
       0.20468624 -0.15992494 0.104590915 -0.22702192
0000b0 af b1 83 be 17 69 25 3e b4 45 a7 3d 17 5a df 3d
       -0.257215 0.1615337 0.08167592 0.10905855

sequential/conv2d_2/BiasAdd/ReadVariableOp/resource f4 [48]
000000 d8 fa 5b 3c bd 63 22 bd 0e ad 14 bd c6 ca 86 3c
       0.013426505 -0.0396459 -0.03629785 0.016454112
000010 91 16 c6 bc 94 a1 70 3e 95 4a 7e bd bf 2a 98 bd
       -0.024180682 0.23499137 -0.062082846 -0.07430028
000020 29 27 1f bd 13 e0 93 bd 82 72 e6 bd 64 df 7b 3e
       -0.038855705 -0.07220473 -0.112523094 0.24596936
000030 30 a5 cd bc 95 c3 37 bd b7 d5 86 bd 33 62 0e 3e
       -0.025103182 -0.044864256 -0.065837316 0.13904648
000040 54 31 e1 bb 3b 6a 81 be f7 22 4f 3e df 4d 77 bd
       -0.0068723354 -0.2527636 0.20228182 -0.060376998
000050 0c ed 08 3e 0e b7 ef 3b b9 67 19 bd d5 0f 8d bd
       0.13371676 0.007315523 -0.037452433 -0.06887785
000060 62 11 54 bd 94 41 eb bc 4f b3 0f bd 0e 7d 5b bd
       -0.05177439 -0.028717794 -0.03508311 -0.05358606
000070 2f 33 b8 bc 95 9d 0c 3d 23 4a 07 be b8 21 c1 bc
       -0.022485344 0.03432997 -0.13211875 -0.023575649
000080 90 71 17 bd 52 b2 bf 3c b3 fd 42 3e ee 91 a4 bc
       -0.036973536 0.02340046 0.19042091 -0.020089116
000090 58 d4 d2 bd 72 dc db bc 46 48 a1 bc 64 f7 0a 3b
       -0.102944076 -0.026838515 -0.019687783 0.0021204585
0000a0 8d 9b ea 3c 5b 59 3b 3e 09 62 38 3d d4 73 82 3e
       0.028638626 0.18295805 0.04501537 0.25478995
0000b0 3d 45 31 bd dd 1d 2b bc bd c6 9c bd 4a d6 ca bc
       -0.04327892 -0.010444132 -0.07655094 -0.024760384

sequential/dense/BiasAdd/ReadVariableOp/resource f4 [64]
000000 8b f0 83 3e 7a 3e c3 bc 2f a5 b6 3c 42 18 a3 bd
       0.25769457 -0.023833502 0.022295563 -0.07963611
000010 90 b5 7e 3e a3 23 ec bd 65 28 77 bd 95 35 05 be
       0.24873948 -0.11530235 -0.060341258 -0.13008721
000020 cd 78 2d 3e d1 99 6f 3c 6f 3f 77 bc 1c c4 a6 3e
       0.16940613 0.014624075 -0.015090807 0.32571495
000030 2e 24 2e 3e 2f 64 ff bc 80 24 ca 3d 81 4a 06 be
       0.17005989 -0.031175701 0.09870243 -0.13114358
000040 1f e6 75 3e 85 d5 67 bd 64 fa 19 3d 08 31 82 3d
       0.24013565 -0.056600112 0.037592307 0.06357008
000050 f8 cc 8d 3d 76 eb 58 bd d0 d3 11 3e 98 61 e3 bd
       0.0692386 -0.052958928 0.14240956 -0.11102599
000060 89 0d 19 be cd 86 8b 3e 3a b9 81 bd d3 3b 83 3e
       -0.1494657 0.27251282 -0.06334157 0.2563158
000070 2a c6 9d bd 43 ef a2 3e 62 5f cd bc 68 7e 8f 3d
       -0.077038124 0.31823167 -0.025069896 0.07006532
000080 df 8f 3a 3e 0f c2 0d 3e b5 33 a2 be 42 b5 43 be
       0.18218945 0.13843559 -0.31680074 -0.19112113
000090 10 f7 70 3e f8 74 3f be 73 03 8b 3e 1b ea 25 3e
       0.23531747 -0.18696964 0.2715107 0.16202585
0000a0 52 26 68 3d c5 e3 7f 3d d8 87 09 bd 07 ad f0 bd
       0.05667717 0.062473077 -0.033576816 -0.11751752
0000b0 27 a3 5b 3d a9 aa 81 bc 8a e2 00 be 89 d0 a8 3c
       0.05362239 -0.015828447 -0.12586418 0.02060725
0000c0 64 a5 ce bd 36 5f df 3d c7 45 88 be e2 94 57 bd
       -0.100901395 0.10906832 -0.26615736 -0.05263222
0000d0 8a da 8e be 8c e7 31 bd 86 cb 35 3d 1f f6 88 bd
       -0.27901107 -0.04343371 0.04438355 -0.06687569
0000e0 7a bd 07 be c9 63 91 bd b2 d9 e9 bb bf 7b 4e be
       -0.13255873 -0.07099111 -0.007136547 -0.20164393
0000f0 c6 8c 81 3d 43 78 9f bd ae 08 f9 3d 9a 9c 38 3e
       0.063256785 -0.0778661 0.12159859 0.18028489

sequential/dense_1/BiasAdd/ReadVariableOp/resource f4 [10]
000000 c8 27 4b 3e da 91 88 be c8 42 99 3e 6d e9 19 be
       0.19839394 -0.26673776 0.29933763 -0.15030451
000010 4f ca 89 3e 30 b2 f6 bc 69 77 76 bd 9e 39 da 3d
       0.26912162 -0.030114263 -0.060172472 0.10655521
000020 33 e0 5f be 4d 18 76 be
       -0.21862869 -0.24032708

sequential/dense/MatMul f4 [64, 2400]
000000 71 0b 9b bd 43 92 b2 bc e0 96 d7 bc be 18 df bd
       -0.07570542 -0.021798259 -0.02631706 -0.10893391
000010 3f d5 88 bd ea a7 b7 bc 53 7e 6b 3b 81 08 a2 bb
       -0.066812985 -0.022418935 0.003593345 -0.0049448614
000020 4a 3e 83 3c 98 99 a1 3b 58 f4 30 bd 52 e8 02 3c
       0.016020913 0.00493164 -0.043201774 0.00798996
000030 e0 36 e7 bb d3 15 e0 3d 85 ed 3e bc c6 73 fb bc
       -0.007056102 0.10941663 -0.011653309 -0.030694854
000040 bf ab b1 3d ce f9 70 bd f0 9b 6a be ad c5 30 bd
       0.08675336 -0.058831982 -0.22911048 -0.04315727
000050 e3 24 0f 3d 63 30 d1 bc a5 ce 47 bd 53 00 97 bd
       0.034947287 -0.025535768 -0.048781056 -0.07373109
000060 3f ee 78 bc 1d 7c 55 bd 07 d0 3f bd 5d 3a 18 3d
       -0.015193521 -0.052120317 -0.04682925 0.037165035
000070 fc 7d bb 3c d6 31 c4 bd 74 27 16 3d 08 d0 24 3d
       0.022887222 -0.09579818 0.03665872 0.040237457
000080 e1 d6 10 be 83 45 e2 3c 34 fc 05 3d 9a f7 09 3c
       -0.1414447 0.027621036 0.032711223 0.008420849
000090 c3 52 5e 3d 89 d5 c8 3b 53 03 08 bd 26 bd 73 be
       0.054278146 0.006128971 -0.033206295 -0.23802623
0000a0 0e af b5 3d b1 42 f7 bc 4d 38 4a 3c 73 d6 44 be
       0.0887128 -0.030183168 0.012342525 -0.19222431
0000b0 29 ed d1 bd 08 94 2d bd b5 2d 29 bd 56 fc 46 bc
       -0.10250313 -0.0423775 -0.041303355 -0.0121451225
0000c0 f1 d6 62 bb 75 e0 82 bc 32 93 6f 3d 17 f7 01 3e
       -0.0034612978 -0.01597617 0.058489986 0.12691914
0000d0 e3 91 01 bd 28 20 9f 3c a6 f0 6b 3b 93 65 36 3d
       -0.03163327 0.019424513 0.0036001592 0.044530462
0000e0 e6 cc 8f ba 4f 99 68 3b f5 51 49 bd 0c 29 60 3c
       -0.0010971099 0.003549177 -0.049150426 0.013681661
0000f0 40 60 ff 3b 76 f9 5c bd 2c 54 98 bc cb 1a 18 3d
       0.0077934563 -0.053948842 -0.018594824 0.037134927
000100 16 9b 7d bd fe b6 2e 3d c4 ce 00 bd cb 40 c2 bd
       -0.06191548 0.042654984 -0.031447187 -0.094850145
000110 31 77 dd bc 85 af b9 3c 9e 6f 92 3c 6e 75 24 3b
       -0.027034374 0.022666702 0.017875489 0.0025094408
000120 18 93 48 3c 17 0e 98 3a c6 95 e8 bb 87 6e 01 bd
       0.012242101 0.0011600879 -0.0070979325 -0.031599548
000130 4a 5f 03 bd 7e 2d 79 bd 12 84 25 bc dd b3 e1 3c
       -0.032073297 -0.0608344 -0.010102289 0.027551586
000140 0b 9d bc bd 25 1a 9b 3b 85 0b 29 3d f8 5e 64 3c
       -0.09209641 0.0047333413 0.04127075 0.013938658
000150 96 a9 af bd b6 02 aa ba 20 0a 17 bd 8d e8 6f bb
       -0.08577268 -0.0012970779 -0.03687489 -0.0036607117
000160 23 c2 18 3d 7f 75 5b 3c d9 9f 07 3d 49 cb 0c 3d
       0.03729452 0.0133947125 0.033111427 0.034373555
000170 82 26 61 3c 85 62 a9 bb f6 5b 03 3d 8d d1 64 3d
       0.013742091 -0.005169215 0.032070123 0.055863906
000180 7d 0d 7a bc 6e 49 06 bc 98 f9 28 bb 6d a6 cc bc
       -0.015262005 -0.008196218 -0.0025783535 -0.024981702
000190 26 2a 4e bd 5e e4 cf 3a 7a ba e2 bc 71 f0 50 3c
       -0.050333165 0.0015860905 -0.02767681 0.012752638
0001a0 c8 00 fc bc ef a9 ba bc 83 f8 ff 3c 70 1c 16 3d
       -0.030762091 -0.022786109 0.03124643 0.036648214
0001b0 5f ca 01 3c f8 2e cd 3d 51 c2 54 3b c5 f2 da 3d
       0.007921784 0.10018724 0.0032464454 0.10690836
0001c0 93 34 fa 3b 54 02 ab bc 5e aa 39 bd eb 30 96 bc
       0.007635662 -0.020875134 -0.04532849 -0.018333873
0001d0 7a 89 95 bd 7d 95 93 3b 4f c9 96 3b 82 7e b8 bd
       -0.07301612 0.0045039044 0.0046016346 -0.090085045
0001e0 c6 31 ab bc a1 2a 82 3b ae da 43 bd f7 4c 3e 3d
       -0.020897757 0.003972367 -0.04781597 0.04646012
0001f0 54 3a 09 3d b0 a8 31 bc 7e 98 09 bd 6c d5 08 3d
       0.03350289 -0.010843441 -0.033592694 0.03340666
000200 2b 13 92 3c f4 17 90 3d ca cb 98 3d 3a a9 69 bd
       0.017831406 0.07035819 0.07460745 -0.057046153
000210 bb 41 3a 3d 96 7c 9e 3d 49 1a 48 3b 99 f8 0f 3d
       0.04547284 0.07738607 0.0030533245 0.03514919
000220 dd a5 8f 3d ce 79 68 bd 07 d8 36 bc 1d 0a 47 3d
       0.07014058 -0.056756787 -0.011159903 0.04859363
000230 d6 4c 95 3d ab 8b 8b bc 51 b6 bf bc 5d 12 e8 3b
       0.07290046 -0.017034372 -0.023402365 0.007082267
000240 f6 49 81 bd 39 2f 06 3d 6b 25 99 bc 2e 4d b3 3d
       -0.06312935 0.03275988 -0.0186946 0.08754955
000250 29 9f 05 bd e1 7e 83 bd bb 51 96 3d bf 1e 26 bc
       -0.03262249 -0.064206846 0.073398076 -0.010139166
000260 bc c9 0d 3d 8c 2a 4c bd 80 f6 9f bc e8 10 2f 3d
       0.034616217 -0.049845263 -0.01952672 0.042740732
000270 63 3c 3d bd df c3 84 bc 22 13 f2 bc ff 61 07 3e
       -0.046200167 -0.01620668 -0.029550139 0.13220976
000280 8b 74 73 bd fe 6a 0d bc fb c7 7d bc 64 53 57 3b
       -0.059437316 -0.008631466 -0.015489574 0.0032856101
000290 79 89 41 bd 7f f5 e0 bb de bb b6 bc 7d 64 9c 3d
       -0.047250245 -0.006865203 -0.022306379 0.07636354
0002a0 8f fc e7 ba 85 a3 dc bc 64 15 d4 3c 88 e8 0c 3d
       -0.001769917 -0.026933441 0.025889106 0.034401447
0002b0 d7 e9 0a 3d ba 6d d6 bd d1 b6 7f bc 27 02 1a 3d
       0.033914413 -0.104701474 -0.015607552 0.03759971
0002c0 d8 5c 08 bd 12 9f 35 bd ea fb fd 3c 09 00 fe bc
       -0.033291668 -0.044341154 0.031003911 -0.031005876
0002d0 b7 d5 d1 bd fa b4 6c 3d 11 a9 4a bc fd 9e 81 3d
       -0.10245841 0.05778978 -0.01236941 0.06329153
0002e0 12 e4 ae 3c f6 75 07 bc 6c 47 03 3c 5a 93 a1 3d
       0.021348987 -0.00826787 0.008012634 0.07889433
0002f0 a9 83 8b 3d f6 76 76 3c 9c fa 37 bd b6 25 a7 3c
       0.068122216 0.015043011 -0.044916734 0.020403724
000300 11 2d b8 bc 56 0c 44 3c 94 05 0a bc 02 fb 26 3c
       -0.022482427 0.011965832 -0.0084241815 0.010191681
000310 a8 dc 78 bd d1 65 b9 bd b1 c2 8f bc 7b 83 6b bc
       -0.06075731 -0.09052623 -0.01754889 -0.014374609
000320 c9 66 04 3d 69 16 9e bc 89 72 ea 3c 33 dc 96 3d
       0.032324586 -0.019297795 0.028619068 0.073662184
000330 27 d9 82 bc 6d 01 b5 3c 06 f4 06 bd 1d af b3 3d
       -0.015972687 0.022095406 -0.032947563 0.087736346
000340 3e 15 58 bd bf ed 00 bd ac 63 2c bc ee 54 10 bd
       -0.052754633 -0.031476732 -0.0105218105 -0.035237245
000350 b2 b1 3a bd c6 90 98 bd e6 46 9c 3c 6b 51 3e bd
       -0.04557962 -0.07449488 0.019076776 -0.046464365
000360 c9 8b 23 bd e2 18 15 bd 0b 09 a0 bc 23 0b 9e 3c
       -0.03992823 -0.036400683 -0.019535562 0.01929242
000370 12 6a 29 bc 1a 23 de ba e2 97 66 3c 41 3c 25 3d
       -0.010340231 -0.0016947717 0.014074298 0.040340666
000380 5f 5d 85 bd 9e 04 09 3d 23 00 9b bc 68 0b 82 bd
       -0.0651195 0.03345167 -0.018920964 -0.06349832
000390 d8 d5 96 3d d4 db 02 bd d7 ba 32 bd a2 57 dd bd
       0.07365006 -0.031947926 -0.043635216 -0.1080773
0003a0 1a f7 a1 bd a5 8c 58 bd e9 04 77 3d 8b bd 3d bd
       -0.07908459 -0.052868504 0.060307417 -0.04632334
0003b0 16 6f 35 3c 9c 6f fc 3b c4 e4 24 bd b5 03 49 bd
       0.011073848 0.0077037346 -0.04025723 -0.0490758
0003c0 f3 fa 47 bd 9c d2 bb 3a f1 a2 44 bd 65 98 b3 bd
       -0.04882331 0.0014329734 -0.048006956 -0.08769301
0003d0 f7 b5 ff 3c 54 6e 2f bc 1b cd dd 3b 4f 46 0a 3c
       0.031214697 -0.010707457 0.0067688352 0.008439614
0003e0 46 60 ce bc 2d 96 03 bd 1f 49 43 bc dc 71 88 bd
       -0.025192391 -0.03212564 -0.011919289 -0.06662342
0003f0 8c ee bf 3d e6 0e e6 3c 5d a2 da bc f0 d8 b2 3d
       0.09371671 0.028083276 -0.026688749 0.08732784

sequential/dense_1/MatMul f4 [10, 64]
000000 2e bf 24 3e 7e ff 27 be 6e 3c ac 3d 23 8f 76 3d
       0.16088554 -0.16406056 0.084099635 0.0601951
000010 39 a5 26 3e 7c 0c 65 be 3f 97 8a be 8f f0 72 be
       0.16273965 -0.22368044 -0.27068517 -0.23724578
000020 e4 4e 37 3e 55 7c 60 be 3a 88 85 3e 95 a8 4e 3e
       0.17901188 -0.21922429 0.26080495 0.20181496
000030 2f ab 8d 3c 7d 8d a5 bd bc 49 a1 bd 0b c0 07 be
       0.01729354 -0.080836274 -0.07875392 -0.13256852
000040 0b 6a 76 3e 30 e8 85 be 87 17 39 be 49 af 7b be
       0.2406389 -0.26153708 -0.18075381 -0.24578585
000050 f7 7a 93 3d cf de 5c be 73 60 21 3e db 61 41 bd
       0.07201188 -0.2156937 0.15759449 -0.047212463
000060 4c 67 55 be 7b 86 6f 3e 50 fe 65 3e c8 ad 4c be
       -0.20840186 0.23391144 0.22460294 -0.19988167
000070 8e 02 9b 3d 25 df 2d 3e 87 47 46 be 86 ed f1 3d
       0.07568847 0.16979654 -0.19363223 0.11812882
000080 21 fc af 3b e2 27 a1 3e 61 04 2c be a3 47 7e bd
       0.0053706323 0.3147574 -0.16798545 -0.062080037
000090 53 3c bd bd a3 be 32 be 31 88 16 be 51 ab 8f be
       -0.092400216 -0.17455535 -0.1470039 -0.28060392
0000a0 71 30 5d 3e e8 6a 41 3e 3b 70 51 be 03 6b d8 bd
       0.2160051 0.18888438 -0.20452969 -0.10567286
0000b0 51 e3 24 be a5 67 c3 3d 00 b7 89 3e 44 0a a7 3d
       -0.1610234 0.09541253 0.2689743 0.08156255
0000c0 3a b5 64 be 75 3a ae 3e 38 ad ad 3d b0 bd 76 3e
       -0.22334757 0.34028974 0.084803045 0.24095798
0000d0 79 3e 93 be 5f 1a 2b bd be db 67 3e 0c 69 c8 be
       -0.287586 -0.041773196 0.22642419 -0.39142644
0000e0 8e 31 39 be 56 c6 82 be 31 1d 3f be 68 b5 4e 3e
       -0.1808531 -0.25541943 -0.1866348 0.20186388
0000f0 b2 1d 83 be e3 d8 7f be 00 05 29 be dd e6 9d bd
       -0.25608593 -0.2498508 -0.16505814 -0.07710049
000100 74 5c 0a 3e a5 12 55 bd ca 61 90 3e 44 f9 98 3d
       0.1351183 -0.052019734 0.28199607 0.07469419
000110 4a 78 5d be c4 a6 42 3e d4 99 45 3e 14 1d 4c be
       -0.21627918 0.19008929 0.19296962 -0.19932967
000120 f6 e4 92 bd 75 0c d9 bd 8c 8a 84 be ff 2c a9 be
       -0.07172577 -0.10598079 -0.25886953 -0.33042142
000130 27 59 7f 3d 1a 3f 88 be f4 b0 00 3c b8 9d 21 3e
       0.06234088 -0.26610643 0.007854689 0.15782821
000140 fb 6c 1a be e5 2b 08 be 9e 62 1d be 33 0e b2 be
       -0.15080635 -0.13297994 -0.1536965 -0.34776458
000150 b4 07 a2 bd 31 ac 88 3e 9c c5 40 bd ae 41 17 3d
       -0.079116255 0.26693872 -0.047063455 0.03692787
000160 10 15 32 3e 86 08 40 be a3 7f 4f 3e d1 4d 8b 3c
       0.17390847 -0.18753251 0.20263533 0.01700488
000170 01 60 f1 bb 0d 01 55 be 34 8d 72 3d b3 f7 00 3d
       -0.007366181 -0.20801182 0.059216693 0.031486224
000180 d1 0e 93 be c0 78 92 3d 4e 8c 8a 3e 92 37 fa 3d
       -0.28722242 0.071519375 0.2706017 0.122176304
000190 44 05 fd 3d d7 84 8a 3d b8 ff 8a be 75 59 a4 3d
       0.1235452 0.067636184 -0.27148223 0.08024875
0001a0 74 8e 4d 3e 42 bd a3 bd f8 a9 15 3d 27 8c e1 3d
       0.20073873 -0.079950824 0.036539048 0.1101306
0001b0 8f 6b 6f be a9 d2 46 3e f1 de 9b bd 25 5f 99 bd
       -0.23380874 0.19416298 -0.07610882 -0.074888505
0001c0 cc b0 7f 3d ba 3d 0e bc 65 d0 0d be ca 7e 90 bd
       0.062424466 -0.008681709 -0.13849027 -0.07055433
0001d0 da 36 a3 be ad dc 1f 3e 55 4b 7c 3e 3b a9 34 3e
       -0.31877786 0.15611525 0.24638112 0.17642681
0001e0 5b b9 33 3e bb 69 cc 3e b6 d7 1b 3d d7 0d 63 3d
       0.17551176 0.39924416 0.038047515 0.05543312
0001f0 38 db 89 3d 8b 97 34 be 63 52 b7 3c c5 c0 9b bd
       0.06731266 -0.17635934 0.022378152 -0.07605127
000200 c3 a8 10 3e d4 9a 61 bd 35 c5 66 3e ab 26 ae 3d
       0.14126877 -0.055079296 0.22536166 0.08503469
000210 e7 0d 6e 3e fd c4 66 be 09 36 31 be e6 60 bc 3c
       0.23247491 -0.22536083 -0.17305769 0.022995424
000220 f2 1b fd bd b5 3e 6d be d9 36 dd 3d d3 51 85 be
       -0.12358846 -0.23168452 0.10801477 -0.2603899
000230 82 8a 73 be 54 ce e7 3d 17 43 4b 3e 3b d4 60 be
       -0.23783305 0.11318651 0.19849811 -0.2195596
000240 bf 18 6a 3e bb 40 61 3d 48 53 19 3e f8 c9 86 3e
       0.22861002 0.054993372 0.14973176 0.26325965
000250 bc 71 b5 3d 0e 37 19 3e 19 22 74 3e 2c 67 1d be
       0.08859584 0.14962408 0.23841132 -0.15371388
000260 fa 92 b9 3d 9b 17 03 3e 3e d8 56 3c 93 13 9c 3e
       0.09061237 0.12801974 0.01311308 0.30483684
000270 16 7b 38 3e fb 12 7c 3d 2f c1 0a 3e 2e 76 81 be
       0.18015704 0.06154154 0.13550256 -0.25285476
000280 14 c0 9a bc 01 51 79 bd b9 3c fb bd b5 db 16 be
       -0.018890418 -0.060868267 -0.12267441 -0.14732249
000290 ea 61 dc 3d 3d 07 8e be db 7f f9 3d f6 72 75 bb
       0.10760863 -0.27739897 0.121825896 -0.0037452555
0002a0 d0 65 b1 3d 75 76 a7 bd 22 40 6b 3e ea a6 ee bd
       0.08661997 -0.08176891 0.22973683 -0.1165293
0002b0 87 8e b2 bd a5 a4 57 be bd 77 5a be d5 e0 9c 3d
       -0.08718591 -0.210589 -0.21334739 0.07660071
0002c0 07 af 56 3e 38 04 82 3e c7 c8 21 be aa be 8c bd
       0.20965205 0.25393844 -0.15799247 -0.06872304
0002d0 fd fd 42 bd ef d5 91 be 94 86 a0 bd 49 b6 f8 3d
       -0.047605503 -0.2848353 -0.07838169 0.12144143
0002e0 be f6 8f be a7 27 2d be bc 16 77 be 46 7e ef bd
       -0.28117937 -0.16909657 -0.24129766 -0.116940066
0002f0 4e a8 83 bd 96 df 20 3d d2 c9 ec bc b5 a8 bc bc
       -0.06428586 0.03927573 -0.02890483 -0.023029665
000300 25 bd 0c bd 2e d4 8f 3c e2 11 1c be 9c 38 02 be
       -0.03436007 0.01755723 -0.15241197 -0.12716907
000310 22 db 71 3e 54 8f 83 3e 08 b5 76 be ef 7e 4c 3e
       0.23618749 0.25695288 -0.24092495 0.19970296
000320 5e 92 63 3e e3 1c 5f 3e cc e3 8a 3d 08 ff 82 be
       0.22223803 0.21788363 0.0678173 -0.25585198
000330 7a 41 ad bc fb 36 1f be 81 6a 01 be b5 2f a9 3d
       -0.021149386 -0.15548317 -0.12638284 0.082610525
000340 b8 c4 11 be 5d 23 66 3e 67 b2 2d be 1f 8c 1e 3e
       -0.14235198 0.22474428 -0.16962586 0.1548314
000350 7c 98 4e 3e a5 19 8f be 6b 98 71 3d f3 73 ec 3c
       0.20175356 -0.27949253 0.058983248 0.028863883
000360 f6 1b 76 3e 35 01 0c 3e 70 a9 72 3c 53 43 ce bd
       0.24034104 0.13672335 0.014810905 -0.10071435
000370 7b b4 97 be 91 47 0d be a1 9b 09 be 54 5c 3b bd
       -0.29629883 -0.13796832 -0.13438274 -0.045742348
000380 62 71 90 bd 95 a0 9a bd 20 09 67 bd e9 ac d8 bd
       -0.07052876 -0.0755016 -0.056405187 -0.10579855
000390 e9 ff 82 bd ff ae 67 3e 42 99 e3 3d 69 f1 d5 bd
       -0.06396467 0.2262535 0.11113216 -0.10446436
0003a0 86 56 a9 3e 89 a5 24 bc da 76 51 be 9c e7 ad 3d
       0.33073825 -0.010049232 -0.20455495 0.084914416
0003b0 24 08 f0 3d ad c3 19 3e ef 12 71 3e aa 7a 20 bc
       0.11720303 0.1501605 0.23542379 -0.00979487
0003c0 fb cf 8f 3d 0f 67 92 bd 2b d1 19 3c 82 07 bd 3d
       0.07022091 -0.07148563 0.009388248 0.092299476
0003d0 87 b9 b3 3d 99 66 96 bd 95 a0 a6 bd a4 f5 6e bd
       0.08775621 -0.07343788 -0.08136097 -0.05833973
0003e0 3a 0b 54 3e d0 2d 60 bd 91 52 a8 bd 57 15 9e bd
       0.20707408 -0.05473119 -0.08218873 -0.07718914
0003f0 60 0b d3 3d 07 f2 47 3e fc 14 fb 3d 4f 80 96 be
       0.10304904 0.1952592 0.12259862 -0.29394767

sequential/conv2d/Conv2D f4 [24, 5, 5, 2]
000000 54 c3 f0 bd ce ce a3 39 1a 8d cd 3c 40 88 b9 3c
       -0.11756006 0.00031243864 0.025091697 0.022647977
000010 c4 2c 6b 3d 66 e3 f8 bd f7 30 50 bd 5b 85 01 be
       0.05741574 -0.12152748 -0.050827947 -0.12648527
000020 5b fe 0b bd 97 ea 53 bd d4 7f 27 3d e7 90 e7 3d
       -0.03417812 -0.051737394 0.04089339 0.11306935
000030 35 1c bb bd 19 37 43 bc 40 b5 94 bd 90 39 3c be
       -0.091362394 -0.011914992 -0.07261133 -0.18381333
000040 66 0a a1 3d 8f 22 a1 bd 72 a5 ee 3c 5d 99 2b be
       0.078633115 -0.0786792 0.029131625 -0.16757722
000050 7f 12 de bd a4 cb 3a bc 08 d5 cd 3c 77 15 c7 bd
       -0.108433716 -0.011401091 0.025125995 -0.09720891
000060 6e 69 03 bd 68 f8 86 bd 2c 72 9b 3c a0 68 ad bc
       -0.032082967 -0.065903485 0.01897534 -0.021168053
000070 f1 f5 b0 bd c6 89 c4 bd 70 e2 6c bd d3 b7 68 bc
       -0.086406596 -0.09596591 -0.057833135 -0.014203983
000080 be ee ad 3d 0b 8a 77 be 3a aa 87 3d 39 3f 43 be
       0.08492802 -0.24173753 0.06624265 -0.19067086
000090 6b b7 88 bd de 91 d4 bd 66 31 93 3d 67 61 66 be
       -0.06675609 -0.103793845 0.071871564 -0.22498094
0000a0 bb 42 1f bd da a6 2e 3e 9b d1 ee 3d d0 87 10 3e
       -0.038882 0.17055836 0.11661073 0.14114308
0000b0 6a 33 17 3e 5b f5 9d bd 34 48 d7 3d 20 72 64 bd
       0.14765707 -0.077128135 0.105118185 -0.0557729
0000c0 e4 2e ba 3d 24 e6 88 be 37 e3 f6 bc 1b 68 fe ba
       0.09090975 -0.26738083 -0.030137641 -0.0019409688
0000d0 1c e3 32 bc 10 a6 4c bd f6 1c c2 3d 1c bb d4 3c
       -0.010918405 -0.049963057 0.0947818 0.025968127
0000e0 34 a1 b5 3d 6d 76 64 3d bb e8 33 bd 9c fb 90 bb
       0.08868638 0.055777002 -0.04392312 -0.0044245254
0000f0 59 4d 35 bd ba 3b a2 bd d3 18 aa bc 90 d2 59 3d
       -0.044263218 -0.07921548 -0.02076379 0.053179324
000100 ca 39 a6 3c 77 15 11 bd c6 b3 83 3d d9 24 1e 3d
       0.020291228 -0.03542086 0.064307734 0.03860936
000110 f1 13 a8 3d 83 aa 97 bd 12 13 83 3b fc 29 81 bd
       0.082069285 -0.074055694 0.004000076 -0.06306836
000120 7b 81 48 3d 0a b6 00 bd 87 90 22 3d 63 fe 86 bb
       0.048951607 -0.031423606 0.039688613 -0.0041196807
000130 5d ab 62 bd e3 11 fa bc 0e fe ab 3d f0 69 88 3d
       -0.055339206 -0.030526107 0.083980665 0.06660831
000140 44 28 59 bd dd 13 d8 bd 10 a2 f4 3d 66 a1 1a 3b
       -0.053016916 -0.105506636 0.119449735 0.0023594736
000150 ba 86 26 3d d7 61 6a 3d 7d d8 22 3d 6e 0b 6b bd
       0.04065583 0.057222214 0.03975724 -0.057383947
000160 6c 54 4e bd d1 a8 84 bd 7d 22 9d 3d 4b b2 52 3b
       -0.05037348 -0.06477512 0.07672594 0.0032149728
000170 f1 4f de 3d 8e de 2c 3d e6 46 6b bc 1c ae 19 bd
       0.10855091 0.042204432 -0.014360165 -0.03751956
000180 69 59 de 3d 0b b8 72 3d 10 f5 57 bd d5 a0 71 bd
       0.108568974 0.05925755 -0.052723944 -0.058991272
000190 56 1b e0 3b 2c e4 c2 3e ec 96 18 bd 16 5c af 3e
       0.006839196 0.38064706 -0.037253305 0.34249943
0001a0 7b b7 08 3e 6f 3e 81 3e 66 48 50 bb 61 51 07 be
       0.13351242 0.25242946 -0.0031781434 -0.13214637
0001b0 bd 8f b6 3d 13 59 76 be 18 5f ea 3d e2 00 90 3e
       0.08914135 -0.24057417 0.11443919 0.28125674
0001c0 81 1e de ba f6 3d b5 3e 2a e8 02 3e f7 e5 6c 3e
       -0.0016946347 0.35398835 0.12783876 0.231346
0001d0 41 d9 e7 3d d2 38 b0 bd 84 3e c3 38 ba 37 10 be
       0.11320735 -0.086045876 9.309969e-05 -0.14083758
0001e0 f9 2b 00 3e fd a7 5d 3e 35 87 be 3d ca 04 3b 3e
       0.12516774 0.21646114 0.093031324 0.18263546
0001f0 8b b3 02 3e 36 4e 5d 3d 5c 9b 20 bd 30 3c 42 be
       0.12763803 0.054029666 -0.039210662 -0.18968272
000200 a1 bd c1 3c 2a 4b 06 be 10 48 21 bd 4e 54 8c 3e
       0.023649992 -0.1311461 -0.039375365 0.2740807
000210 50 99 6b bd d6 99 28 3d 8d b1 9a 3c 90 99 0f be
       -0.057519257 0.041162334 0.018883491 -0.14023423
000220 0f fa 89 3d d5 6d 87 be 4b c2 19 bc 2b f3 76 be
       0.06737148 -0.26450983 -0.009384702 -0.24116199
000230 4b f1 14 3d 4a 61 74 3e 3b 9e 99 bd f6 b8 8d 3d
       0.036362927 0.23865238 -0.07500883 0.06920044
000240 a2 da 0a 3c 55 ff 23 bc 31 08 15 bd 6b 5a 40 be
       0.008474978 -0.010009606 -0.036384765 -0.18784492
000250 83 2b ea bd d4 5a 28 be 43 fe 5a bd d7 a4 40 be
       -0.114340805 -0.16440898 -0.05346514 -0.18812881
000260 e7 ef 49 3d a4 bc 55 bc b1 59 05 bd 92 35 99 ba
       0.049301054 -0.013045464 -0.03255624 -0.0011688939
000270 06 96 e7 3d 37 79 be bd 5f bd 86 bd a7 91 69 bd
       0.113079116 -0.09300464 -0.065790884 -0.05702367
000280 06 fc 1b 3d 55 b7 27 bd 23 4a 32 3d 14 d4 4b bd
       0.038082145 -0.040946323 0.043527734 -0.0497628
000290 24 fd 00 3e 91 4a 10 be c8 6a 3d 3c 06 8b 94 bb
       0.12596565 -0.14090945 0.011561103 -0.0045331744
0002a0 28 78 10 bd 48 71 0e bc b6 c7 20 3d dc 62 cc bc
       -0.03527084 -0.008694001 0.03925296 -0.024949484
0002b0 b2 ee 0f bd eb 1f a7 bd 4b 1f ab 3d 76 cc 2b be
       -0.035139747 -0.08160385 0.08355578 -0.16777214
0002c0 7e 84 84 3d 4e 46 4c bd 8b 81 d1 3b db cd 08 be
       0.064705834 -0.049871735 0.0063936166 -0.13359778
0002d0 c4 63 6c bd c4 3d 23 bd a9 ee 49 bd 8b 79 c2 bd
       -0.05771233 -0.039853826 -0.04929987 -0.09495839
0002e0 04 9e 8d bd 44 e8 ea bc 10 cc 6b 3c 88 75 36 3d
       -0.06914905 -0.028675206 0.014391914 0.04454568
0002f0 23 65 53 3d 56 94 cb 3d a7 ad 86 bd 2b ad d1 bd
       0.051610123 0.09940402 -0.0657609 -0.10238107
000300 53 22 f8 3d 04 1f 1c be dc c5 24 3e c3 c4 32 be
       0.12115922 -0.15246207 0.16091102 -0.17457871
000310 de f7 c2 3b 02 d2 32 be d7 2a da bc 9d b1 a5 bd
       0.005949958 -0.17462924 -0.026631756 -0.08090518
000320 60 80 7d 3d 75 bb f3 3d c0 12 96 3d 53 ae da bc
       0.061890006 0.11900989 0.07327795 -0.026694452
000330 e9 5d 2a bd 90 db c0 bd 8f fa 3b bd a1 a3 26 be
       -0.041593466 -0.09416878 -0.04589325 -0.16273357
000340 88 ef 81 bd ea 5a 64 be 55 b5 7d 3d 61 16 a0 bc
       -0.06344515 -0.22300306 0.06194051 -0.019541921
000350 f4 9d 71 3d 58 ea 39 bd 14 ea f1 bc ea bc 1b be
       0.058988526 -0.045389503 -0.029530562 -0.15208784
000360 41 98 61 3d 3c ec da bd 96 1b f2 bd 26 a4 6d be
       0.05507684 -0.106895894 -0.11821668 -0.23207149
000370 c1 7f b1 3d 36 0e e4 3c 20 9d 6b 3d 1e 5e 9c 3b
       0.08666945 0.027838808 0.057522893 0.004771962
000380 2d 7f 97 3d 36 fb 8d bd 54 de ba 3c 62 e8 32 be
       0.07397304 -0.0693268 0.022811092 -0.1747146
000390 b3 9b 0a be 4c c2 9b be 71 ac 89 3d b8 4a 9e 3b
       -0.13535957 -0.30421674 0.06722344 0.0048306845
0003a0 02 61 00 bd ac 88 0d bd 15 bf c7 3d 8f 91 fc bd
       -0.031342514 -0.03455417 0.09753243 -0.123324506
0003b0 e2 b7 b4 3c ff d1 e3 bd 1c 75 a7 bd 5c 83 61 be
       0.022060338 -0.11124038 -0.08176634 -0.22022766
0003c0 6b 54 1a bd 3f 3e 8b bb 35 b4 88 3d ad 7f 62 bd
       -0.037678163 -0.0042493637 0.06674997 -0.055297542
0003d0 27 43 ed bc 6d 76 3a be ce e4 98 3d c1 ad 0d be
       -0.028962685 -0.18209238 0.07465516 -0.13835813
0003e0 84 12 8f bd c3 b7 51 be 1d 85 86 bd 6d 52 ec 3d
       -0.069859535 -0.20480256 -0.06568358 0.11539159
0003f0 c5 75 13 bd 74 53 25 3e 89 f0 9d bc e1 dc 71 3c
       -0.036000986 0.16145116 -0.019279735 0.014762134

sequential/conv2d_1/Conv2D f4 [48, 5, 5, 24]
000000 8a 83 85 3c f3 c0 9c 3b aa 53 2c 3b d6 2f a0 bc
       0.016298074 0.0047837435 0.0026294985 -0.01955406
000010 3b 0b 80 3d be d2 8f bd 15 c7 b0 3c c8 64 56 3c
       0.06252142 -0.07022618 0.021579305 0.013085552
000020 fd 7f 27 3d 25 54 04 3e e2 ae 93 bc f0 ee 16 be
       0.040893544 0.12922724 -0.018027727 -0.14739585
000030 10 e2 57 bb 59 69 a3 bc e2 cc 8f bd 4f 27 06 3d
       -0.003294114 -0.019947695 -0.070215 0.03275233
000040 e1 19 bc bd b4 47 8c bd 96 ce bf bc be a8 68 bd
       -0.091846235 -0.06849614 -0.023413938 -0.05680155
000050 e1 9c 64 3d de 34 df bc 14 6d 2e bd 96 52 3e 3d
       0.055813674 -0.027246889 -0.042584494 0.04646548
000060 74 50 c5 bd fe 3f 61 3d 3b d8 ef bc 22 b3 02 3d
       -0.09634486 0.05499267 -0.029277911 0.031909116
000070 ae 07 8c bc 2d e7 a1 bd 26 36 77 3c c0 79 37 3c
       -0.017093506 -0.079054214 0.015088594 0.011198461
000080 ca c3 02 bc 83 6a da 3c cc 42 60 bc 1c 2d ee bd
       -0.00798125 0.026662117 -0.013687801 -0.11629698
000090 30 08 29 bb 0b 24 c7 bd 6c 51 a7 bd e8 eb 82 bd
       -0.0025792234 -0.097236715 -0.08169827 -0.06392652
0000a0 7c b0 02 3c 45 bd b7 bd b0 0f 98 bd 03 9d 1c 3d
       0.0079766475 -0.08971647 -0.07424867 0.038235676
0000b0 9b 6b df 3c 4d 7c c3 bc 65 b7 86 3b 00 18 b9 bc
       0.02727299 -0.023862982 0.004111218 -0.022594452
0000c0 29 d0 e7 bc eb e9 2a 3d 8e bc 8b bd 14 f1 cf 3b
       -0.0282975 0.041726988 -0.06823073 0.0063458774
0000d0 47 e1 47 3c 08 01 14 be d0 ad 24 bd f9 bb c4 3c
       0.012199706 -0.14453518 -0.040204823 0.024015414
0000e0 2c a1 3d 3d aa 03 81 bd c0 fe 30 3d d8 b5 b6 3c
       0.046296284 -0.06299527 0.0432117 0.022303507
0000f0 62 58 85 bc f8 e8 17 b8 03 e7 86 bd be 12 43 bc
       -0.016277496 -3.6218175e-05 -0.06587031 -0.011906324
000100 f4 b9 ba bd 3b 93 d1 bd 09 2c 9c bc 3d 56 a5 3b
       -0.09117499 -0.1023316 -0.019063966 0.005045681
000110 61 29 34 3d ea 71 79 bd a3 30 55 3b d8 9b 39 bd
       0.043984775 -0.060899653 0.003253021 -0.04531464
000120 1b 9b 77 bd f8 92 36 bd 8b 9f 6f 3c 4c 14 db 3c
       -0.060450654 -0.044573754 0.01462544 0.026743077
000130 8d 5f cf bd 2b f0 f9 bd 04 77 ad bb 6a 54 49 3d
       -0.10125647 -0.122040115 -0.005293729 0.04915277
000140 45 b4 00 3d 4e da 3a bc 29 a8 3c 3d a1 2e 69 3d
       0.03142192 -0.011404587 0.046058808 0.056929234
000150 e4 63 3a bd 88 cd dc bc c5 78 08 ba cb d2 2a bd
       -0.04550542 -0.026953474 -0.00052059843 -0.041704934
000160 2a a0 b7 bc 3d ce fb bd 2b 43 8c bc 20 03 91 bd
       -0.02241524 -0.12295196 -0.017121872 -0.07080674
000170 fe d6 88 bc 75 c7 c1 bb 20 a0 7e bd 74 6e a8 bc
       -0.016704079 -0.0059136697 -0.062164426 -0.02056048
000180 83 4d f9 3c 16 40 27 3d 6e c0 d5 bc af 0e 1e bd
       0.030432468 0.0408326 -0.026092734 -0.038588222
000190 c8 dc 82 bd 89 44 24 be 64 97 a6 bc b1 55 2f bd
       -0.06389767 -0.16041769 -0.02033586 -0.04280633
0001a0 5a 96 8b 3c 1a 9c bd 3c 33 c9 84 bc 65 28 59 3c
       0.017039467 0.023145724 -0.01620922 0.01325426
0001b0 2e 7b 47 bd 1d c9 12 3c 3a 9a 90 bd c4 77 47 3c
       -0.048701458 0.008959082 -0.070606664 0.01217455
0001c0 f9 d1 a9 bc af 23 2d be 8f 1c 8b bd c7 b9 81 bd
       -0.020730006 -0.16908143 -0.067925565 -0.06334262
0001d0 de bc f8 3c 85 ab 02 3d 0f 69 85 bc c9 3a 59 3d
       0.030363496 0.031901855 -0.016285447 0.053034578
0001e0 72 9d 04 be 79 7f d2 bc f2 c1 9a bd db 23 8c bd
       -0.12950686 -0.02569555 -0.075565234 -0.068427764
0001f0 5b bc 21 bd 0b fe f1 bd d7 1b ca bc 62 2f 23 bd
       -0.03948627 -0.11816033 -0.024671478 -0.03984011
000200 56 e6 01 3d bf 26 73 3d 28 38 e1 3b 4b d8 cf bd
       0.031713806 0.059363123 0.0068731494 -0.101486765
000210 60 3c 99 3c a0 13 91 bd 0e 88 81 bd 31 9b ca 3b
       0.018705547 -0.07083821 -0.063247785 0.006183051
000220 eb 8c bd bd 6c eb cf bd 51 87 0e 3d cb c4 c8 ba
       -0.092553936 -0.10152325 0.034797017 -0.0015317438
000230 52 7c 80 3b 06 80 a3 bd 41 45 06 3b 48 b8 23 3c
       0.00392107 -0.07983403 0.0020488056 0.009992667
000240 b0 54 dd bc 82 0d 56 bd 68 01 9a bd f8 85 bd bc
       -0.027017921 -0.052258976 -0.075197995 -0.02313517
000250 17 15 fb bc 7b 85 ac bd b0 0a 67 bd 0c f2 ba bc
       -0.030649705 -0.08423897 -0.056406677 -0.022820495
000260 c4 55 08 3d aa 66 c2 bc aa 2e 2e 3d 28 b3 b4 bd
       0.033284917 -0.023730595 0.04252497 -0.08823234
000270 2c 62 19 3d 11 d7 04 bd f6 be 1a bd 96 ed 7b 3d
       0.03744714 -0.032431666 -0.03777977 0.061505876
000280 fe 2b 4c bd 60 16 b0 bd b8 3a 3b bd b5 37 f5 3d
       -0.04984664 -0.08598018 -0.045710295 0.11973516
000290 45 af 1b 3c 4d 1b 80 bd 07 e2 05 3d dc a1 3c bd
       0.009502237 -0.06255207 0.03268626 -0.0460528
0002a0 48 81 b3 bd 87 d0 7b 3c 11 95 df bd 40 c2 92 bd
       -0.08764893 0.015369541 -0.10917104 -0.071659565
0002b0 c9 14 58 bd d4 88 3b be 87 37 73 bc 03 f2 14 3d
       -0.052754197 -0.18313915 -0.014844782 0.036363613
0002c0 53 fe 25 3d 7d dc d0 bd ee 04 7a bd 71 b0 84 bd
       0.040525746 -0.10198305 -0.061039858 -0.06478966
0002d0 2a 90 48 3d 54 87 40 bd 7a 26 78 3c d7 a6 c7 3c
       0.04896561 -0.04700406 0.015145892 0.024371548
0002e0 66 60 3c bc 88 b3 10 be a2 25 c5 ba 43 d7 c9 3c
       -0.011497593 -0.14130986 -0.0015041123 0.024638778
0002f0 3e d6 70 3c 99 29 97 bd 54 9f de 3c dc eb 25 3d
       0.014699517 -0.07380981 0.027175583 0.040508136
000300 7d 87 00 be 0b 51 5e bd f1 b5 1c bb 93 6f f6 bb
       -0.12551685 -0.054276507 -0.0023912156 -0.007520625
000310 9a 84 96 bd 65 45 64 be 05 8d 6a bd 73 47 52 bd
       -0.073495105 -0.22292097 -0.057263393 -0.05133767
000320 95 d7 40 bc 65 50 4f bd 07 f8 64 bc 8d 0a cd 3d
       -0.011770149 -0.05061378 -0.01397515 0.10011778
000330 60 70 ba 3b 60 11 9d bd 3e 8e d2 3c fb f7 4d bc
       0.0056896657 -0.0766933 0.025702592 -0.01257133
000340 08 8c 92 3b 95 06 a2 bd 3b c5 85 bd cb 6d 07 3c
       0.0044722594 -0.07911412 -0.06531759 0.008265923
000350 6b ed ab b9 33 17 b3 3c c8 9f 46 bb fc 5a 1b bd
       -0.00032792552 0.021861648 -0.003030764 -0.037928566
000360 52 d7 35 3d 8c 8b d6 bc e4 f2 f1 ba a8 6a f0 3a
       0.0443948 -0.026189588 -0.0018459228 0.0018342333
000370 19 cb 23 be 52 e1 0c be 45 c5 0b 3d 73 fb bf 3c
       -0.15995444 -0.13757828 0.034123678 0.02343533
000380 a0 2f 14 3d 6f 05 b1 bd 63 2c 56 bd 36 51 a2 bc
       0.03617823 -0.086436145 -0.052288424 -0.019814115
000390 71 70 06 bd c7 a6 a2 3d 30 e4 43 3d 96 49 8c bd
       -0.032822076 0.079419665 0.04782504 -0.06849973
0003a0 96 27 44 bd 2b 10 db bd a9 26 ab bc ae 30 ff 3c
       -0.047889315 -0.10696443 -0.020892458 0.031151142
0003b0 a6 92 3e bd 1a 50 6a 3c b6 4d 59 3a f5 97 9c ba
       -0.046526574 0.014301324 0.0008289473 -0.0011947142
0003c0 eb af eb bd 64 cf 9c 3c 05 4d 66 bd fb 3f 52 3c
       -0.11508163 0.01914186 -0.056225795 0.012832637
0003d0 b3 85 a0 3d 36 aa 37 be f7 af d3 bc 1b 2c 1e bd
       0.07838001 -0.17936024 -0.025840743 -0.03861628
0003e0 c2 32 1d bd 18 c5 41 3d 97 d3 c9 3c b7 c2 1e be
       -0.038378485 0.047307104 0.024637027 -0.15503965
0003f0 02 26 4b 3d 5f 16 95 bb 90 60 db bd 9e ce 33 3d
       0.049596794 -0.004549786 -0.10711777 0.043898217

sequential/conv2d_2/Conv2D f4 [48, 5, 5, 48]
000000 68 ef 95 3d ef fd 6e bc 72 f4 03 be c7 1d 31 3d
       0.07321054 -0.01458691 -0.12886217 0.04324129
000010 e3 23 6e 3d 60 83 85 bd bf 68 57 3b fd ee ce bd
       0.058139693 -0.065191984 0.003286883 -0.10104177
000020 c3 2d 09 bd c9 98 30 3d e7 2c df 3c 83 fe 68 3c
       -0.033490907 0.043114457 0.02724309 0.014220837
000030 0b 18 68 3c 68 96 b9 bc 8c f4 03 3e 1a 24 e8 bd
       0.014165889 -0.022654727 0.12886256 -0.11335011
000040 4f 08 b8 bd f6 4c fa bc 86 2b e6 3c a4 7a ee 3c
       -0.0898596 -0.030554276 0.028096925 0.029111214
000050 f5 d8 1e bc ae af a4 bd bc ff 58 bc 8d 15 d8 3c
       -0.009695281 -0.08041321 -0.013244566 0.026377464
000060 a2 ff 9a bd 23 c6 02 3d fe 65 3f 3d 63 84 88 3d
       -0.07568289 0.03192724 0.046728127 0.06665876
000070 c6 9c 08 be 95 e6 25 3d e7 fc 16 bd 0e ed ab bc
       -0.13341054 0.040503103 -0.03686228 -0.02098706
000080 b8 ae ba bd 76 1f f2 bd 0a f2 b2 bd ae 5e e6 bd
       -0.09115356 -0.11822407 -0.087375715 -0.112485275
000090 7e 5d 2c bd 7e be 89 bd 8b 05 17 3d 4c dc 32 3c
       -0.04208135 -0.067257866 0.03687052 0.010916781
0000a0 97 69 15 bd f0 87 96 bd de 45 4c 3c eb bc ff bc
       -0.03647765 -0.07350147 0.0124678295 -0.031218013
0000b0 71 0b 1f 3d 07 fe 16 bc 9f a3 94 bc 22 26 cb bc
       0.03882927 -0.009215838 -0.018144427 -0.024798457
0000c0 07 14 4f 3d c3 5b 07 bc e2 33 74 bd d1 5d df bc
       0.05055621 -0.008261624 -0.05961979 -0.027266415
0000d0 03 ad c3 3d 06 1b 44 3b d3 a5 bc 3c 2e df 9d bc
       0.09554484 0.0029923334 0.02302829 -0.01927146
0000e0 42 08 a6 3d c8 07 08 bd 11 25 d6 bd e9 b3 50 bd
       0.08107044 -0.033210546 -0.104562886 -0.050952826
0000f0 bc bb 2e bb a1 d0 dd bd a7 82 97 3d aa f4 53 bd
       -0.0026662191 -0.108308084 0.07397967 -0.051747
000100 af 33 6c bc 53 0d 31 3c cf a4 ba 3c 64 f1 7b 3d
       -0.014416619 0.010806399 0.022783665 0.061509505
000110 8f 14 3f bd ed cf 18 bd 5f d2 4d bd c1 ae 13 3d
       -0.046650466 -0.03730767 -0.050249454 0.03605533
000120 ee f2 33 bd dc 09 c7 3c 77 44 4d bb 47 d2 ba 3d
       -0.043932848 0.024296694 -0.0031321326 0.091221385
000130 d1 4c 1d be 9e e3 6e bc c1 a8 34 be 70 7b e1 bc
       -0.15361334 -0.014580635 -0.176425 -0.02752468
000140 c6 2e 44 bd ed 16 bc bd c2 b7 90 bd 5f 25 09 bd
       -0.04789617 -0.0918406 -0.07066299 -0.033482905
000150 d6 e1 5a ba 9d e5 08 bd 41 ef bf 3c 03 18 8b bd
       -0.0008349692 -0.0334221 0.023429515 -0.06791689
000160 54 9d 2d bc d9 b9 8a bd fe 8f 4f 3d 11 5a 15 be
       -0.010596592 -0.06773729 0.05067443 -0.14585139
000170 90 bc e9 3c 12 f7 b7 bd 07 2e 2b 3c 49 f4 09 bd
       0.028532296 -0.08982672 0.0104479855 -0.033680234
000180 86 a3 88 3b 78 b8 8b bd 9b f1 b7 bd 9c e4 0f bc
       0.004169884 -0.06822294 -0.089816295 -0.008782532
000190 4c a9 15 3d b4 65 18 3d 61 a1 a1 bd 64 8c 78 bc
       0.036538407 0.037206367 -0.07892109 -0.0151701905
0001a0 62 1c bb 3c c1 c9 a8 3c f9 f7 30 bd 93 d1 03 3c
       0.022840682 0.020604016 -0.043205235 0.008045572
0001b0 b2 11 63 bd ce 24 be bd 34 68 35 3d e1 11 8d bc
       -0.055436797 -0.09284364 0.04428883 -0.01722044
0001c0 4c 90 7f bd a4 30 41 bd de 42 e2 bc e3 ef 5f 3d
       -0.06239347 -0.047165528 -0.027619775 0.054672133
0001d0 43 b8 fc bc 5c 75 59 bd 99 78 d3 3c c2 b7 97 bc
       -0.030849582 -0.05309044 0.025814341 -0.01852024
0001e0 0e 18 ae bc b9 b7 20 bc a2 e6 80 bd 13 f3 a7 3c
       -0.021251705 -0.009809428 -0.0629399 0.020501649
0001f0 de 78 90 bd 07 61 ba 3c 35 a5 1a be 41 58 a8 bc
       -0.070543036 0.022751344 -0.15102084 -0.020549895
000200 cf 41 83 3c 72 0d 8f bd fd 8c ef bd 5c 08 c8 3c
       0.01602259 -0.06984986 -0.11696813 0.024418049
000210 f7 25 33 3d 37 6a 4b 3c 68 40 a4 3d 38 8c 9f bd
       0.043737378 0.01241546 0.08020097 -0.077904165
000220 73 30 31 bd c0 be 9f bd c2 1f 61 3c c8 da 85 bd
       -0.043259095 -0.078000546 0.013740482 -0.0653587
000230 bc c4 9c 3c ef fb cb bc 74 3a 5d bc 2d b6 5d be
       0.019136779 -0.024900405 -0.013502706 -0.21651526
000240 66 48 ad bc 9f 74 20 bd fc e5 33 bd 52 56 37 bd
       -0.021152686 -0.03917372 -0.043920502 -0.044760056
000250 eb d5 1d 3d c5 e7 3c 3d 62 7c 09 bd 67 b6 2f 3d
       0.038534086 0.04611947 -0.033565886 0.04289856
000260 bb 6e 7f bd 64 a3 ff bc 65 6a 0f bc 68 ec 8e bd
       -0.06236146 -0.03120584 -0.008753394 -0.06978685
000270 d8 4b 99 bc 9f c7 3e 3d d1 11 2d 3d 8b e6 2f be
       -0.018712923 0.046577092 0.04225332 -0.17177789
000280 16 a4 17 bc 04 96 69 3d 70 65 ef bc d6 e8 35 3d
       -0.00925543 0.05702783 -0.029223174 0.044411503
000290 8f fc ec bc 99 84 a7 bd ea 67 28 3c 33 53 ea bc
       -0.028929023 -0.08179588 0.010278681 -0.028604126
0002a0 35 4d 3b be 12 2f ba bd ee d0 e3 bc c0 03 43 3d
       -0.18291171 -0.09091009 -0.027809586 0.047611
0002b0 93 cd f3 bd a5 17 93 bc a3 b3 74 bd 24 c6 62 3d
       -0.119044445 -0.01795561 -0.059741627 0.055364743
0002c0 d2 a3 01 bd 30 98 19 3d 29 db 5b bc 45 42 6d bd
       -0.03165037 0.037498653 -0.013418951 -0.057924528
0002d0 10 21 02 3d cc 0e 19 bc 50 cf 16 3c de 90 a7 3d
       0.031769812 -0.009341907 0.009204701 0.08181928
0002e0 8a ce 9c bd 43 7e 3f 3c 8c 34 58 bb 57 7f 02 be
       -0.07656582 0.011687818 -0.0032990305 -0.12743889
0002f0 ff e6 4d 3d 11 5d dc bd 6a 19 88 bc ba 4f 68 bc
       0.050269123 -0.107599385 -0.01661368 -0.014179165
000300 ef 6a 27 3c 62 c4 d2 bc 7d f8 aa ba 3d 03 fc bb
       0.010218366 -0.025728408 -0.0013044026 -0.0076908157
000310 7f b4 62 bd 2f a2 85 3c 83 b3 9e bd 87 9d 13 be
       -0.055347916 0.016312687 -0.07749083 -0.1441556
000320 33 e2 42 3c fa 01 48 3c f1 ec a4 bd f4 f0 0e 3d
       0.01189475 0.0122075025 -0.080530055 0.03489776
000330 c0 4a 39 3c f4 c1 ba bd 0e 84 48 3e d0 7f ee bc
       0.011309326 -0.09119025 0.19581625 -0.02911368
000340 eb f0 7d bd d4 8d 42 3d 5b 6d 31 bb 59 6c b4 3d
       -0.061997335 0.04749854 -0.0027073238 0.08809728
000350 8a 34 83 3c 08 d1 31 bd 91 53 3b 3c e3 0e f7 bb
       0.016016264 -0.04341224 0.011433498 -0.0075396164
000360 3c b3 f2 3c 4c 71 fc bb 3f 3a 1b 3a 85 ea 04 bd
       0.029626481 -0.0077039357 0.000592146 -0.032450218
000370 7a a4 fd bd 87 39 92 bd af 2e 21 be 79 c5 65 3d
       -0.12384887 -0.07139879 -0.15740465 0.056096528
000380 23 c8 43 bd 44 0f 9f bd 61 be 98 3d 73 bf 15 bd
       -0.047798287 -0.077665836 0.07458187 -0.036559533
000390 9d f4 11 3d b9 d7 fa bb b4 b2 7a bc 78 61 c9 bd
       0.035633672 -0.0076551107 -0.015301395 -0.09833044
0003a0 a9 28 a8 3c 7d c6 9b bd 98 8e 26 bd 55 6d 87 bd
       0.0205272 -0.07606218 -0.04066333 -0.0661265
0003b0 77 d7 c0 bc 71 9d b0 bc 3c 11 9c 3d 12 31 60 b9
       -0.023540242 -0.021559449 0.07620475 -0.00021380585
0003c0 c1 30 aa bc 3e 99 99 bb cc c4 8c bd c3 63 d7 3c
       -0.0207752 -0.0046874573 -0.068734735 0.026292687
0003d0 fa 60 46 3d e9 57 08 be b2 e2 b7 3c cb a5 69 bd
       0.048432328 -0.13314785 0.022446964 -0.057042878
0003e0 da 73 98 3d f4 cf 5b bd c3 07 41 3d 40 c2 04 3c
       0.07443972 -0.053665116 0.047126543 0.008102953
0003f0 75 60 6a 3b 82 9b 5f bd 01 d9 16 bb 53 72 75 bc
       0.003576306 -0.054591663 -0.0023017528 -0.01498087
